DistributedDataParallel(
  (module): TransformerSeq(
    (in_emb): Embedding(267735, 128)
    (out_emb): Linear(in_features=128, out_features=267735, bias=True)
    (layers): ModuleList(
      (0-2): 3 x TransformerSeqLayer(
        (attn): MultiHeadSeqAttention(
          (attn): SeqAttention(
            (dropout): Dropout(p=0.7, inplace=False)
          )
          (proj_query): Linear(in_features=128, out_features=128, bias=False)
          (proj_out): Linear(in_features=128, out_features=128, bias=False)
          (proj_val): Linear(in_features=128, out_features=128, bias=False)
          (proj_key): Linear(in_features=128, out_features=128, bias=False)
        )
        (smoe): CustomizedMoEPositionwiseFF(
          (gate): CustomNaiveGate_Balance_SMoE(
            (gate): Linear(in_features=128, out_features=16, bias=True)
          )
          (experts): _Expert(
            (htoh4): FMoELinear(num_expert=16, in_features=128,         out_features=128, bias=True, rank=0)
            (h4toh): FMoELinear(num_expert=16, in_features=128,         out_features=128, bias=True, rank=0)
            (activation): Sequential(
              (0): ReLU()
              (1): Dropout(p=0.7, inplace=False)
            )
          )
          (layer_norm): LayerNorm((128,), eps=1e-05, elementwise_affine=True)
          (dropout): Dropout(p=0.7, inplace=False)
        )
        (norm1): LayerNorm((128,), eps=1e-05, elementwise_affine=True)
        (norm2): LayerNorm((128,), eps=1e-05, elementwise_affine=True)
        (norm3): LayerNorm((128,), eps=1e-05, elementwise_affine=True)
      )
    )
  )
)
** trainer_params 
{'batch_size': 16, 'batch_split': 2, 'nb_batches_per_iter': 1000, 'nb_iter': 60, 
'checkpoint_path': '/home/ubuntu/workspace/MomentumSMoE/result/checkpoints/mamba_smoe.pt', 'resume': False, 
'pretrained_weight': '', 'full_eval_mode': False}
** 
ipdb> train_data.shape
torch.Size([16, 6451688])
ipdb> val_data.shape
torch.Size([16, 13602])
…
