DistributedDataParallel(
  (module): TransformerSeq(
    (in_emb): Embedding(267735, 128)
    (out_emb): Linear(in_features=128, out_features=267735, bias=True)
    (layers): ModuleList(
      (0-2): 3 x TransformerSeqLayer(
        (attn): MultiHeadSeqAttention(
          (attn): SeqAttention(
            (dropout): Dropout(p=0.7, inplace=False)
          )
          (proj_query): Linear(in_features=128, out_features=128, bias=False)
          (proj_out): Linear(in_features=128, out_features=128, bias=False)
          (proj_val): Linear(in_features=128, out_features=128, bias=False)
          (proj_key): Linear(in_features=128, out_features=128, bias=False)
        )
        (smoe): CustomizedMoEPositionwiseFF(
          (gate): CustomNaiveGate_Balance_SMoE(
            (gate): Linear(in_features=128, out_features=16, bias=True)
          )
          (experts): _Expert(
            (htoh4): FMoELinear(num_expert=16, in_features=128,         out_features=128, bias=True, rank=0)
            (h4toh): FMoELinear(num_expert=16, in_features=128,         out_features=128, bias=True, rank=0)
            (activation): Sequential(
              (0): ReLU()
              (1): Dropout(p=0.7, inplace=False)
            )
          )
          (layer_norm): LayerNorm((128,), eps=1e-05, elementwise_affine=True)
          (dropout): Dropout(p=0.7, inplace=False)
        )
        (norm1): LayerNorm((128,), eps=1e-05, elementwise_affine=True)
        (norm2): LayerNorm((128,), eps=1e-05, elementwise_affine=True)
        (norm3): LayerNorm((128,), eps=1e-05, elementwise_affine=True)
      )
    )
  )
)

my rank=0 local_rank=0
data_params:     {'data_path': '/home/ubuntu/workspace/dataset/wikitext-103', 'data_name': 'text8'}
model_params:    {'hidden_size': 128, 'inner_hidden_size': 128, 'nb_layers': 3, 'block_size': 256, 'nb_heads': 8, 'attn_span': 256, 'dropout': 0.7, 'architecture': 'sgsgsg', 'base_arch': 'transformer', 'smoe_drop
…
