…
trainer_params:	 {'batch_size': 32, 'batch_split': 2, 'nb_batches_per_iter': 1000, 'nb_iter': 80, 'checkpoint_path': '/lustre/scratch/client/vinai/users/anhnd81/workspace/MomentumSMoE/result/checkpoints/2csmoe_STT7.pt', 'resume': True, 'pretrained_weight': '', 'full_eval_mode': True}
adapt_span_params:	 {'adapt_span_enabled': False, 'adapt_span_loss': 0, 'adapt_span_ramp': 32, 'adapt_span_init': 0, 'adapt_span_cache': False}
Loading an existing corpus file from /lustre/scratch/client/vinai/users/anhnd81/.cache/wikitext-103/corpus.pt
Loading an existing corpus file from /lustre/scratch/client/vinai/users/anhnd81/.cache/wikitext-103/corpus.pt
TransformerSeq(
  (in_emb): Embedding(267735, 352)
  (out_emb): Linear(in_features=352, out_features=267735, bias=True)
  (layers): ModuleList(
    (0-5): 6 x TransformerSeqLayer(
      (attn): MultiHeadSeqAttention(
        (attn): SeqAttention(
          (dropout): Dropout(p=0.1, inplace=False)
        )
        (proj_query): Linear(in_features=352, out_features=352, bias=False)
        (proj_out): Linear(in_features=352, out_features=352, bias=False)
        (proj_val): Linear(in_features=352, out_features=352, bias=False)
        (proj_key): Linear(in_features=352, out_features=352, bias=False)
      )
      (smoe): CustomizedMoEPositionwiseFF(
        (gate): CustomNaiveGate_Balance_SMoE(
          (gate): Linear(in_features=352, out_features=16, bias=True)
        )
        (experts): _Expert(
          (htoh4): FMoELinear(num_expert=16, in_features=352,         out_features=352, bias=True, rank=0)
          (h4toh): FMoELinear(num_expert=16, in_features=352,         out_features=352, bias=True, rank=0)
          (activation): Sequential(
            (0): ReLU()
            (1): Dropout(p=0.1, inplace=False)
          )
        )
        (layer_norm): LayerNorm((352,), eps=1e-05, elementwise_affine=True)
        (dropout): Dropout(p=0.1, inplace=False)
      )
      (norm1): LayerNorm((352,), eps=1e-05, elementwise_affine=True)
      (norm2): LayerNorm((352,), eps=1e-05, elementwise_affine=True)
      (norm3): LayerNorm((352,), eps=1e-05, elementwise_affine=True)
    )
  )
)
TransformerSeq(
  (in_emb): Embedding(267735, 352)
  (out_emb): Linear(in_features=352, out_features=267735, bias=True)
  (layers): ModuleList(
    (0-5): 6 x TransformerSeqLayer(
      (attn): MultiHeadSeqAttention(
        (attn): SeqAttention(
          (dropout): Dropout(p=0.1, inplace=False)
        )
        (proj_query): Linear(in_features=352, out_features=352, bias=False)
        (proj_out): Linear(in_features=352, out_features=352, bias=False)
        (proj_val): Linear(in_features=352, out_features=352, bias=False)
        (proj_key): Linear(in_features=352, out_features=352, bias=False)
      )
      (smoe): CustomizedMoEPositionwiseFF(
        (gate): CustomNaiveGate_Balance_SMoE(
          (gate): Linear(in_features=352, out_features=16, bias=True)
        )
        (experts): _Expert(
          (htoh4): FMoELinear(num_expert=16, in_features=352,         out_features=352, bias=True, rank=0)
          (h4toh): FMoELinear(num_expert=16, in_features=352,         out_features=352, bias=True, rank=0)
          (activation): Sequential(
            (0): ReLU()
            (1): Dropout(p=0.1, inplace=False)
          )
        )
        (layer_norm): LayerNorm((352,), eps=1e-05, elementwise_affine=True)
        (dropout): Dropout(p=0.1, inplace=False)
      )
      (norm1): LayerNorm((352,), eps=1e-05, elementwise_affine=True)
      (norm2): LayerNorm((352,), eps=1e-05, elementwise_affine=True)
      (norm3): LayerNorm((352,), eps=1e-05, elementwise_affine=True)
    )
  )
)
nb_parameters=215.68Mnb_parameters=215.68M

Experiment dir : /home/anhnd81/anhnd81/workspace/MomentumSMoE/result/logging.txtExperiment dir : /home/anhnd81/anhnd81/workspace/MomentumSMoE/result/logging.txt

Experiment dir : /lustre/scratch/client/vinai/users/anhnd81/workspace/MomentumSMoE/result/checkpoints/experiments/2csmoe_STT7Experiment dir : /lustre/scratch/client/vinai/users/anhnd81/workspace/MomentumSMoE/result/checkpoints/experiments/2csmoe_STT7
…
